Vanilla-Policy-Gradient/vpg/policy_params.pt (torch_old, 70739 bytes, 6 tensors)

fc1.weight f4 [128, 4]
00000000: 0e81 733e c45d 48be cb7f 7abb cc17 983e
00000010: 63c7 eebe d2ff a73e 8336 7bbd f9bc 853e
00000020: d4ca 4b3d 1f2c 1dbd 96f8 683e 9695 b03d
00000030: 49e9 3f3e ef71 4fbe cb35 dcbd cfc4 a0bd
00000040: 34d8 913d edde 063d 31a0 053f b319 403e
00000050: 25a9 24be abcb a7be 3eaf 3fbe 4d42 8fbe
00000060: 63a5 3cbe 4fbc 3d3d bcb4 ca3e 7a8e a83e
00000070: cd13 03bf 2d75 af3e 8a34 843e 41ba 0c3f
00000080: a2e4 b43e 33b6 f7be 3378 15bf b3cc a1be
00000090: 41fe ea3e a74c d7bd aeba ec3d a471 96be
000000a0: 99b8 f33e 8903 48be 1640 e93e c876 833d
000000b0: e550 91be b7a7 913e d34b 20be 5614 503e
000000c0: 03be febd 41b7 b0bd 612e 17bf 9836 9ebe
000000d0: 1f98 813e b4c7 c5bd 6c53 183f 835e eb3e
000000e0: ca84 06bd b810 abbe f810 933e f4e6 163e
000000f0: f667 adbe a52d b93e abf9 d63e 5a76 023f
00000100: 10ce 9ebe bb92 73bd 0933 b73d 8e97 093e
00000110: f8f5 cebe d94c aabe 9e82 b03e c384 bebd
00000120: 0f65 623e e576 4e3d e58c 873e 4720 2d3e
00000130: 90ad 1f3e 41f5 893e 07ba b9be 4eb0 a33e
00000140: 158d b8be 2c30 d0be e29e 18bd 8e4f ccbd
00000150: 324e 8a3e 45c3 a7be cc32 02bf c7b0 b63e
00000160: 8cf5 51bd 538f 853e f849 963d ce4f dbbe
00000170: 75f5 f23d 4837 c53d 8b33 debe 3171 99be
00000180: cfb6 4e3e a798 8c3d 1256 a2be 0ddc 64be
00000190: cd23 de3e de34 8dbd 9e2e c53e 940a 903e
000001a0: b217 b9be 8824 d0be 0c28 133f 533e c03d
000001b0: 617c a83e 898f 063e 3e36 803e cdae d53e
000001c0: 4815 ef3e b8b9 a0be 36fe f33d fb7c ce3e
000001d0: c3b0 c33e a8e6 923e 7d32 ebbe 326a d7be
000001e0: 188b 94be 3b92 6e3d 4498 eb3e 7314 b3be
000001f0: ed26 8c3e 1608 9ebe 6de8 0fbf 8243 12be
00000200: 2cd9 a63e c644 ee3e c940 b8be 8426 983d
00000210: 4cd6 d23e 8b41 b53e 04cb ca3e 12de c73e
00000220: 8da7 ac3e 5c86 d53d 53f8 e3be 138a f9be
00000230: c738 7cbe 5a12 2cbd 3948 64be c1b7 733e
00000240: 5b82 053e f105 babd d4ba 953e 0323 6a3e
00000250: c18c 9a3e 84f5 b63e dc96 04be 0655 fe3e
00000260: 191d 0ebd 5f57 38bd 608d 16bf 658f c9be
00000270: ff65 9cbe 39c7 48be 9893 c03e 0a74 3dbe
00000280: 67f5 bfbe 10e5 5e3e ce4b 503e e465 a93e
00000290: eb13 70be afa3 bb3d 9e94 88be 15e3 28be
000002a0: 68a1 e1be 4731 5cbe 248d 54bd a531 933e
000002b0: 4624 923d ebf7 223e 51bb 1d3f ae78 0f3f
000002c0: 7957 a13e a57b 0b3d 98a0 84be ae82 e13e
000002d0: f0bd d2bd 0ebf 8dbd e1b3 08bf 6eab 2abe
000002e0: 5a38 9abe 9a18 de3e e103 07bf 604c e8be
000002f0: 4e86 5e3b 9f2e 9abe 04b7 933d a920 84be
00000300: 0fd6 67be 0f6f f83b 2b9b 963e 9a7d c5be
00000310: 350c 873e 115f 9d3e 3915 d23e e2d5 cdbe
00000320: 0ba6 033e 088d cdbe d410 af3e 1df7 68be
00000330: baf8 a43e 1d8e 71bb c916 01be a93c 86bd
00000340: dd03 713d ff4b 823e 7b29 343e d4a4 533e
00000350: cc96 edbe 303d cd3e f5f1 0c3f 858f f13e
00000360: d0bb b13e 82e8 aabe 23a4 bdbd a221 023f
00000370: bcf6 bdbe 5a5a d73e 366d f5be 0355 d2be
00000380: 429f 673e f164 acbe b053 4cbd b09a cd3e
00000390: d717 dd3e c004 e73e e854 4bbe d0be e8be
000003a0: d8aa 013f 537c 07be 2c63 8bbe 465e f23d
000003b0: 0c7b a6be a206 a03e a27d 733e fec2 e4be
000003c0: 9f44 d8be 6894 a5bc 7492 873e 08cc 65bc
000003d0: 9222 6abe 0e3c 32bc 52c2 11bf da6e d2be
000003e0: e7a8 94be d94b db3e bc21 d73e 39a1 46be
000003f0: 5c5e 163d dea5 453e 493d f2bc a22c 9fbe
0.23779699 -0.19567019 -0.0038223143 0.29705656 -0.46636495 0.32812363 -0.061331283 0.26120737
0.04975398 -0.038372155 0.22751078 0.08622281 0.18741335 -0.20258306 -0.10752448 -0.07850038
0.071213156 0.032927442 0.5219756 0.18759803 -0.16080149 -0.32772574 -0.18719193 -0.2798027
-0.18422465 0.046322163 0.39591014 0.329212 -0.5120209 0.34269086 0.25821334 0.549717
0.35330683 -0.48381194 -0.58386534 -0.31601486 0.45897105 -0.10512667 0.11559044 -0.29383576
0.47601774 -0.19532599 0.45556706 0.0641914 -0.2838203 0.2844827 -0.15653925 0.20320258
-0.124385856 -0.08628703 -0.59055144 -0.30901027 0.25311372 -0.09657231 0.5950229 0.45970544
-0.03284148 -0.33411193 0.28723884 0.14736539 -0.33868378 0.36167637 0.41987357 0.5096184
-0.31016588 -0.059466105 0.08945281 0.1343672 -0.40422034 -0.33261755 0.34474653 -0.09302666
0.22108863 0.050406355 0.26474681 0.16906844 0.15593553 0.26944926 -0.3627474 0.31970447
-0.36045137 -0.40661752 -0.037260897 -0.09976111 0.27012783 -0.32766166 -0.5085876 0.35681745
-0.051259562 0.2608591 0.07338327 -0.42834324 0.118632235 0.09629685 -0.433987 -0.2996917
0.20186923 0.068650536 -0.3170629 -0.22349568 0.4338669 -0.06894849 0.3851213 0.2813307
-0.3615089 -0.4065287 0.5748298 0.093868874 0.32907394 0.13140692 0.25041384 0.41734925
0.46695924 -0.31391692 0.11913721 0.40329728 0.38220796 0.28691602 -0.45936957 -0.42073208
-0.2901237 0.058244925 0.46014607 -0.3497654 0.27373448 -0.30865544 -0.5621403 -0.14283565
0.32587564 0.46536845 -0.35986927 0.07429221 0.4117912 0.35401568 0.39608014 0.39036614
0.3372158 0.10426018 -0.44525394 -0.48738155 -0.24631034 -0.04200969 -0.22293176 0.23800565
0.13038008 -0.090831645 0.292441 0.22864918 0.30185512 0.3573419 -0.12948173 0.49674243
-0.03469572 -0.0450052 -0.5880947 -0.39367214 -0.30546567 -0.19607247 0.37612605 -0.18501297
-0.37491915 0.21767068 0.20341417 0.3308555 -0.23445098 0.091620795 -0.26675886 -0.16492875
-0.44068456 -0.21503173 -0.051892415 0.28748813 0.07135825 0.15914886 0.6161395 0.5604352
0.3151205 0.034053463 -0.25903773 0.44045013 -0.10290134 -0.069212064 -0.53399473 -0.16666958
-0.30121118 0.43378145 -0.52740294 -0.4537077 0.0033954564 -0.30113694 0.07212642 -0.25806168
-0.2264025 0.0075815986 0.2941526 -0.3857239 0.263765 0.30736592 0.41031817 -0.40202242
0.12856309 -0.4014666 0.34192526 -0.22750516 0.32221013 -0.0036858388 -0.12606348 -0.06554539
0.058841575 0.25448605 0.17593949 0.20668346 -0.4640411 0.40085745 0.550567 0.4717981
0.34713602 -0.33380514 -0.09259822 0.5083257 -0.37102306 0.4206112 -0.47934884 -0.41080484
0.22619346 -0.33670762 -0.049884498 0.4015708 0.4318225 0.4512081 -0.19856608 -0.45458078
0.5065131 -0.1323102 -0.272241 0.118343875 -0.32515752 0.3125506 0.23778394 -0.44680017
-0.42239854 -0.020212367 0.26478922 -0.014025696 -0.2286475 -0.010878576 -0.56937134 -0.41100198
-0.29035112 0.42831305 0.42017925 -0.19397439 0.03671108 0.19301555 -0.029570239 -0.3108874

fc1.bias f4 [128]
00000000: b94a c1be 1751 9f3e bad2 843e f0ef e5be
00000010: 4e04 c8be 6cc2 a6be 1535 88be 62a2 6b3d
00000020: 77e2 efbe 462a b4be b63d 493e b143 29be
00000030: 5a1a 3cbe 0550 cfbe 61db 2e3e a49e fe3c
00000040: 0ef8 47be 9370 8ebe bb82 ca3d 5326 0d3e
00000050: 8ce6 613e a651 e33d 69d1 8bbd 1881 bebe
00000060: 579e 9d3e becc 26bc 74bc a5be 9378 d43e
00000070: a7c6 843e 847f bfbe fbd3 62be 5628 25be
00000080: dc6e 8fbe d3b2 5d3e 2fbb adbe 6f46 e03e
00000090: 5562 4ebe f6d4 893e 5cef 8a3c c7a9 28be
000000a0: 74e9 9e3e 27f8 c0be c81a 86be 2267 673d
000000b0: 7413 c73e 62d0 62be 63af 98be b473 9cbe
000000c0: 91ce 4ebe b8c4 24be 9310 e1bd 4dc1 8abe
000000d0: 4cb3 1c3e 224c 09bc 83fc a4be 6597 8fbe
000000e0: 64e5 ba3d d114 6fba be29 a73e 3de1 97bd
000000f0: 1b3d c8be 388c b4be 4c37 09be 68df ccbd
00000100: e346 543d feec e4bd 6220 3c3e 0e1d 2abe
00000110: f1d8 b83e 1207 e03d c112 1fbe 58c4 d33e
00000120: d66e 0b3e 98f3 a5be 0fa6 87be 3f9a 9f3e
00000130: ba74 593e effe c63e f080 02bd c6ea ab3e
00000140: 4b52 7d3e 4446 0c3e 35d2 f6bd bfcc f53e
00000150: 9a40 b93d ebb2 08be 1be8 0eb9 9704 f73e
00000160: 60b8 a23e 7496 1dbd 5668 e73e f6b4 5d3e
00000170: 1161 71be 5a0d e7be e876 923e 42c6 db3e
00000180: 09ee 96be 90b4 343e 28ce 103c e03d cabd
00000190: 5055 01be 683b 063e de56 ce3d 0fec a33e
000001a0: 485f 443e 8db7 593e 1d45 dc3e 04de 1e3e
000001b0: b58a 9e3d 6358 3cbe d95e b73e adba 8c3d
000001c0: c838 9d3e 5a77 ee3e 8ade d8bd 9646 a73e
000001d0: 6aba c1bd bfa7 e43e 6d8b c03e f30f 30be
000001e0: 3295 c73b ec29 60be 375e 46be ee9c c8bd
000001f0: d4ea 9bbb 76c5 2bbe 565e edbe 2cca 9abe
-0.3775232 0.31116554 0.25942022 -0.4490962 -0.39065784 -0.32570207 -0.26602998 0.057527907
-0.46852466 -0.35188502 0.19652447 -0.16529728 -0.18369427 -0.40490738 0.17075874 0.031081505
-0.19528219 -0.27820262 0.09888216 0.13784151 0.22060603 0.110995576 -0.06827051 -0.37207866
0.30784866 -0.01018065 -0.3237034 0.4149824 0.2593281 -0.37401974 -0.22151177 -0.16128668
-0.28014266 0.21650247 -0.33931872 0.43803737 -0.20154698 0.2692029 0.016959839 -0.16471015
0.31037486 -0.37689325 -0.26192307 0.05649484 0.3888203 -0.22149804 -0.2982131 -0.30557024
-0.20195986 -0.16090667 -0.109894894 -0.27100602 0.15302771 -0.008379968 -0.322239 -0.28045192
0.09125784 -0.00091202284 0.32649034 -0.07416008 -0.3910912 -0.35263228 -0.134 -0.10003549
0.051825415 -0.11178015 0.18371728 -0.16612646 0.36103013 0.109388486 -0.15534498 0.41360736
0.136165 -0.3241241 -0.2649388 0.31172368 0.21235934 0.38866374 -0.031861246 0.33577555
0.24738424 0.13698679 -0.120518126 0.4800777 0.09045525 -0.13349502 -0.00013628641 0.4824569
0.31781292 -0.03847356 0.4519679 0.21651062 -0.23572184 -0.45127374 0.28606343 0.42924696
-0.2947848 0.17647004 0.008838214 -0.09875083 -0.126302 0.13108599 0.10075162 0.32016036
0.19176972 0.21261425 0.4302148 0.1551438 0.077413 -0.18393092 0.3581455 0.06871543
0.30707383 0.46575433 -0.10589321 0.3267104 -0.09459384 0.4465923 0.37606373 -0.17193584
0.0060907835 -0.21890992 -0.19371878 -0.09795557 -0.0047582183 -0.16774544 -0.46361035 -0.3023237

fc2.weight f4 [128, 128]
00000000: 8e53 993c 278e 05bd 7963 593d a195 b13d
00000010: f11a b03d a099 293d 4d2d 09bd 475b 093e
00000020: 47d0 9cbd 5863 a6bc 3b6a 90bd 874a 763d
00000030: 9df3 b9bd 4633 12bc 45dc 7fbd bf18 ad3b
00000040: 3226 85bc de19 d23d 3b73 c53b 10ef ef3c
00000050: 5378 e6bd c6af 843d 227b 9dbc 25a0 9fbd
00000060: 92d2 013d 00bc 673c 7a29 d93d 4494 79bd
00000070: c5a2 adbd 0cc5 83bd 9331 423d 83ff cfbc
00000080: d907 7cbd 861c 0a3d 8c36 18bc 5f00 8d3c
00000090: e495 49bc fe53 60bd 2b83 0e3c e37b 03bd
000000a0: e802 843d 018f a73d b7c7 16bd ca64 743c
000000b0: f3b9 953b c07a b2bd 6e33 d93c f53c f1bc
000000c0: ad96 14bd 0a5b 68bd 7410 353d 02e0 28bd
000000d0: 4fa0 7abd a5c1 213d aa2d cabc 35c4 aebd
000000e0: 4185 013d 3cd8 37bd 6eab 3d3d d13a 8b3d
000000f0: 754b 15bd a091 68bd 41cf c6bb c85e 5d3d
00000100: 7669 2bbc 93b0 953c 62fd 493c 3984 da3d
00000110: 8f2f 203d 7cbd babd 7e92 dc3c b4f8 e6bc
00000120: d02c 3c3d 13f7 14bd 556e 64bd 758b bcbc
00000130: 63df d5bc d8c1 253c d33e d9bc 95a6 58bd
00000140: 1fa9 013d d6b1 153d 7733 4a3d c93f d4bd
00000150: 6544 093d 09c0 993d 1d1a 0bbd 27f6 3ebd
00000160: 4351 fa3b 2395 79bc 16ab 813d cb2b 423d
00000170: 2117 123c 05fc 11bd 0ce4 323d c411 cf3c
00000180: 16ac 9c3d 7f0f 80bd 5ac2 4c3d 4a30 4d3c
00000190: 8bd4 a0bd cef0 f0bd 3263 303d 2c0e c53c
000001a0: 5245 cdbd d5ed 933d 4a46 1b3d a2d9 f43c
000001b0: f8c0 dc3c f36d dd3c c1d4 523d 4f28 d03d
000001c0: b8ab 1d3d ab1f 85bd 17e0 48bd e579 773d
000001d0: 9dec 7d3d 579e e63c ac6d eabc 1082 9bbc
000001e0: aac8 88bd f9e5 e0bc 1d6d a43d 212e 6ebd
000001f0: 7124 f1bc fb82 c6bb fe23 60bd ac18 263d
00000200: e7a2 113c f187 013d 8807 a4bd ef4a d63c
00000210: 9261 5cbd 2957 6b3d b327 f43d 0039 e03c
00000220: 559d 663c c026 1abd 9686 86bd cc80 91bc
00000230: 421b 80bd 7531 433d 439d 66bc f246 913d
00000240: c018 36bd b251 25bd 77e7 7ebd 63da 7dbd
00000250: 13ac 503d 2ebe 9c3c 67dc b2bd 7ddc 52bc
00000260: 1ab7 9fbc 1c0e a83d 1a82 d83d 0701 aa3c
00000270: d781 793d c3cb 03bd 7d1c d03b 712c 8fbd
00000280: 0f76 213d 4bef cd3d 8e84 463d 7860 973d
00000290: 73c4 2fbc 2f56 c9ba 094f 02bd 4359 a83d
000002a0: 7542 9ebd a522 08bd 827a 133d 6a30 1f3c
000002b0: 37ca dd3c 30de 26bc 74ed d8bc a01d 603d
000002c0: 099c 853d 7963 c13d 2c9a 2b3d 13ff 3e3c
000002d0: eb1c a73d 645b 0a3e 5229 bbbc da63 1d3d
000002e0: 7178 033c ae9c 53bd c555 18bd 822c 7abc
000002f0: 2f32 2ebd 2309 0bbd f3be 603d 85bc 813d
00000300: fd0b 69ba 5d31 26bd cdb7 0b3c dd69 efbb
00000310: b9dd 613d b555 dabd e525 aa3c 2ae2 6f3d
00000320: 3c43 3e3c b8d5 15bd 7d81 aabd 36a7 bfbc
00000330: c6ec 003d 3c34 c1bd 434f e3bd ea8e 85ba
00000340: c162 41bd e4d4 1c3d 0324 67bd 40b5 15bd
00000350: dd2d 96bd 4945 203b ae93 d1bd c040 853c
00000360: 41c0 8dbd b6c8 59bd ba51 8dbd 73ac e6bd
00000370: 0892 943d 5ae5 123c 5be1 65bd 1086 303d
00000380: 9b59 043c ac3d 5c3d 8dcb 75bb 6890 eabc
00000390: 8353 813c e3f6 863b 2011 a3bd 2094 8d3a
000003a0: 8a3a 07bb cc8d 153d 9ed8 edbc 7481 7cbd
000003b0: f57b b8bd 3abe 513d 1157 88bd 10c0 10bd
000003c0: 1343 09bd 8651 7cbd 50f8 163c d667 5e3d
000003d0: 867f 723d fc5e a5bd 506f 693d 2bd6 763d
000003e0: 2382 d6b9 047c 693d 5838 773d 684c a33d
000003f0: efd7 183d e767 473c 3606 13bd 9fff 01bd
0.0187166 -0.03260627 0.05307338 0.086711176 0.08598889 0.041406274 -0.033490468 0.13413726
-0.07656913 -0.020311043 -0.07051512 0.06012967 -0.09079669 -0.008923357 -0.062465925 0.005282491
-0.016253565 0.1025884 0.0060256994 0.029288799 -0.11253419 0.064788386 -0.019223753 -0.07794217
0.031694956 0.014143944 0.10603614 -0.060932413 -0.084783114 -0.06434068 0.04741056 -0.025390392
-0.06153092 0.03371861 -0.009290349 0.017212091 -0.012303803 -0.0547676 0.008698265 -0.03210057
0.06445867 0.08181573 -0.036811557 0.014916608 0.004569286 -0.08714819 0.026513781 -0.029448012
-0.036276508 -0.056727447 0.044205144 -0.041229255 -0.06118804 0.039491314 -0.024679977 -0.08533517
0.03162122 -0.04488395 0.046306066 0.06798328 -0.036448915 -0.056779504 -0.006067187 0.05404547
-0.010462156 0.018272674 0.012328478 0.10669751 0.039107855 -0.091181725 0.026925322 -0.028194763
0.045941174 -0.03636844 -0.055769283 -0.023015717 -0.026107496 0.010117017 -0.026519215 -0.05289324
0.031655427 0.03654655 0.049365487 -0.103637286 0.03351249 0.07507331 -0.03396045 -0.046621468
0.0076390817 -0.015233311 0.0633146 0.047405045 0.008916647 -0.035640735 0.043674514 0.025277026
0.0765001 -0.06252956 0.049990036 0.01252372 -0.07853039 -0.1176468 0.04306335 0.02405461
-0.100229874 0.07223097 0.03790883 0.029888932 0.026947483 0.027029967 0.05147243 0.10163938
0.038493842 -0.06500181 -0.049041834 0.060418982 0.06199323 0.028151674 -0.028616749 -0.018982917
-0.06678899 -0.02745341 0.08028624 -0.05814946 -0.029436322 -0.0060580946 -0.054721825 0.040550873
0.008888937 0.031623784 -0.08009249 0.026158778 -0.053803988 0.05745617 0.119216345 0.02737093
0.014075597 -0.03763461 -0.06568639 -0.01776161 -0.06255199 0.047654588 -0.01407558 0.0709361
-0.044457197 -0.040361114 -0.06223246 -0.061975848 0.050945353 0.019133653 -0.08733445 -0.012869951
-0.01949649 0.08205816 0.1057169 0.020752443 0.06091484 -0.032176744 0.0063510523 -0.069908984
0.03941923 0.10055407 0.048466258 0.07391447 -0.0107279895 -0.0015360768 -0.031813655 0.0822015
-0.077275194 -0.033236165 0.036005504 0.009716133 0.027073963 -0.01018481 -0.026480414 0.054715753
0.06523902 0.09442801 0.041895077 0.011657494 0.081598125 0.13511425 -0.022846851 0.038425304
0.008024321 -0.051663093 -0.03719117 -0.015269401 -0.042528328 -0.03394426 0.054869603 0.06334785
-0.0008890031 -0.04057442 0.008527708 -0.007306321 0.05514309 -0.106608786 0.020770023 0.058565296
0.01161271 -0.03658077 -0.08325479 -0.023395162 0.031475805 -0.09433791 -0.11099102 -0.0010189686
-0.04721332 0.038288966 -0.056430828 -0.036549807 -0.073329665 0.002445536 -0.10233246 0.016266227
-0.06921435 -0.05316993 -0.06900354 -0.11263361 0.07254416 0.0089658145 -0.05612312 0.043096602
0.008078004 0.053769752 -0.003750536 -0.028633311 0.015786892 0.0041187867 -0.07962251 0.0010801591
-0.0020634257 0.03651218 -0.029033955 -0.061646894 -0.09008018 0.051206805 -0.066572316 -0.035339415
-0.033511233 -0.061601184 0.009214476 0.054298244 0.059203647 -0.080747575 0.05699092 0.06026284
-0.0004091422 0.057003036 0.060356468 0.07973558 0.037315305 0.012170768 -0.035894595 -0.03173792

fc2.bias f4 [128]
00000000: 1e00 d33c 8789 92bd a66e 5bbc bd15 bebd
00000010: 7afd 20bd d7e7 213d 7f60 993b 735e ac3c
00000020: 8750 9d3c ed46 ed3c 0162 22bc 8afb e0bc
00000030: 6e7d f83b e74d 863d f9e7 8a3c 4b13 58bc
00000040: e4b2 3f3d b21e c1bd 6f45 4cbd f394 2fbd
00000050: 682d 9d3d 03e3 47bc 444c 80bd e9e5 313d
00000060: 3f3b a83d 9ab5 423d c416 583b 2c7d 0cbd
00000070: 54d5 2a3d d5f4 a03c 43e0 fbbc 8da0 5dbd
00000080: d2f0 413c 0849 413d 7272 f6bc f7b8 0bbb
00000090: 8e3a 8bbd 8914 433c b6e4 2fbd fe4d 983d
000000a0: 4509 853d 5ef4 66bd 5de4 77bd 822b 90bd
000000b0: d19f 59bd f7ff 603d 8d93 f3bb 7836 853d
000000c0: b2e7 593d d20c acbc 6aac 753d 173b 883c
000000d0: 03ba 993d c08f 8d3c af49 ee3c 539c 963d
000000e0: 3f20 36bc 415c 6b3d b36f e73b fe40 9cbd
000000f0: 7e41 673d 1727 6abd 6571 2c3b 2158 ae3d
00000100: 5d74 c5bc 9884 aabd a23a 963d 6699 e23c
00000110: aec0 593d 2609 6a3d bc19 b6bd 745f d63c
00000120: 391e 96bd 9d19 ae3b 3455 8cbd f71f d23d
00000130: 6dca b83d 3acc 1e3c d5b5 e4bc 29b4 4f3d
00000140: 101c a23d 1d1c 433c 5a0a 5b3d 4b62 d3b8
00000150: 812b 56bd c3dd a63d da7d 90bd cfd0 61bd
00000160: 8f2c 6e3d a5cc 063d 5daa 643d 6cec 6abd
00000170: 7433 b03c 123a ff3c fd3c b33b 7dbf a7bd
00000180: d00c 633d 2621 f23c e0d1 81bd 5fea adbc
00000190: 3fa0 b8bd 6156 983d e63b d33b 61a4 4abd
000001a0: c681 9c3d b686 9dbd 7abc 5f3c 9ec5 8abc
000001b0: ba03 0ebb 0b1d e9ba d0c2 31bc 78cf 803d
000001c0: 9672 8a3d 8d54 033d 52ed 09bd 97dd e0bc
000001d0: 8b4d 05bd 7584 523c a574 e73c ec15 9a3d
000001e0: 86c8 c9bd 4abe a1bd 792f b73b c28d 963d
000001f0: 3974 503d 89bf e3bc 3334 083d 0c59 463d
0.025756892 -0.071551375 -0.01339308 -0.0928149 -0.039304234 0.03952774 0.0046806927 0.02104113
0.019203437 0.028964484 -0.009911061 -0.027463693 0.0075833118 0.065578274 0.016956316 -0.013188194
0.046801463 -0.09429683 -0.049870905 -0.04286666 0.07674676 -0.01220012 -0.062645465 0.04343215
0.08214425 0.04753647 0.0032972554 -0.03429906 0.04170735 0.019647995 -0.030746585 -0.05410819
0.011837201 0.04718879 -0.030083869 -0.0021319964 -0.06798278 0.011906751 -0.042942725 0.07436751
0.06495909 -0.05638539 -0.06052052 -0.070395485 -0.05313093 0.054931607 -0.007433361 0.0650453
0.053199477 -0.021002207 0.05997888 0.016629739 0.07506182 0.01728046 0.02908787 0.07354035
-0.0111160865 0.057461027 0.007062876 -0.07629584 0.056458943 -0.057166185 0.0026312706 0.08512903
-0.024103338 -0.083260715 0.07335402 0.027661037 0.05316227 0.05713763 -0.08891627 0.026168562
-0.07329983 0.005313112 -0.06852189 0.10260003 0.09022985 0.009692246 -0.027918736 0.050708923
0.07915509 0.011908558 0.05347667 -0.000100795725 -0.052287582 0.081477664 -0.07055254 -0.055130776
0.058147963 0.032910008 0.055826534 -0.057354376 0.02150891 0.03115562 0.005469917 -0.0819082
0.05543214 0.029556822 -0.063388586 -0.02122992 -0.090149395 0.074383505 0.0064463494 -0.04947317
0.0764194 -0.0769171 0.013655776 -0.016939934 -0.0021669702 -0.0017785145 -0.01084967 0.062895715
0.06760137 0.032063056 -0.033673592 -0.027449412 -0.032544654 0.012848963 0.028253863 0.075237125
-0.098527 -0.07897623 0.005590376 0.07351257 0.05089209 -0.027801292 0.033252906 0.048424765

fc3.weight f4 [2, 128]
00000000: cc9a 033c a41d 1e3d f6b7 ef3d 8913 fa3b
00000010: 5b00 81bd bc9d 47bc ea6d 983c 1351 bd3d
00000020: 0f71 063d b40b b9bc 7843 1b3c 0c93 593d
00000030: 5f6c be3d 88dd 993c 16dd ccbb 97ec b03d
00000040: bce6 7f3d d1ea 783d 180d 00bc 34cb b53d
00000050: 7469 bfbc fa53 a83d 1920 74bd 4866 0fbc
00000060: 7e3a 3fbd e6c6 063d 2d67 003d de9b 2d3b
00000070: e3ac 9dbd f260 023d 707f 50bd e3cc 383c
00000080: d2bf 8f3d 68a6 7dbc e8e4 ed3c 8264 dbbd
00000090: 098e a6bc 7ef8 ae3d b338 3c3d fbcc f63d
000000a0: 6559 b5bc 585c 683d 2316 5fbd e93e f139
000000b0: 0223 54bd 8c31 383a 3fac bf3c ae19 4abc
000000c0: d05c 88bd 4a5d b2bd 2b3c 0b3d c733 59bd
000000d0: 3d34 e1bd 538d bf3d eb91 2abd 2750 b73d
000000e0: a055 9b3d b6ab 973c 8f29 d8bd 9d0e bcbb
000000f0: ae32 333d 3b22 453d 0c18 efbd 4074 7bbb
00000100: 76e9 d9bd 291e 6bbd b6b3 afbd 258e 833d
00000110: c399 a43d 46db 62bd 3a95 b2bd d4cb 793d
00000120: bad9 01bd 5437 2fbd e2e3 4cbb 55e6 b7bd
00000130: 6cf4 adbd c401 aa3d d3dc b2bd fac2 aa3d
00000140: db9d 2cbd 15b6 9ebd a060 cabd 095e 9b3d
00000150: 90b5 ecbd 9d55 fd3c 99b3 d73b 8eac 763d
00000160: 186e b9bd ef4b d8bd e4fc bf3c 7cf1 a7bd
00000170: bb85 31bd 5a0c 103d 8437 493d 77cc a43d
00000180: 6e65 59bd 672d 8bbd 5c31 c63d b8d9 a13c
00000190: dc07 7fbd 5f54 a83d ff78 c3bd c774 433d
000001a0: 5ec9 1a3c ed08 c0bb c7b9 89bd ae1d 2dbd
000001b0: 69ce e3bc 6936 61bc 18d2 38bd e53a 423c
000001c0: 6f59 c0bd 72c0 b0bd 936f 943c 7766 c23d
000001d0: 9356 763d 8ae3 a3bd 5816 6c3d 6e0f a8bd
000001e0: 58c6 803d 812d ceba f62e 99bc e8e3 c6bd
000001f0: 8796 b8bd fe35 ddbd 3c5c 41bd 9d3b bd3d
00000200: 21d4 e33c c663 ba3d 8dfd dcbd 8ef1 ad3d
00000210: a5ac c8bc a3a3 a23d 3194 acbd 56db 80bd
00000220: eae8 bc3d 1bbf a73d dbe6 8abd cf70 afbd
00000230: bf6e b1bc 7672 ea3d 51a4 cb3d ac2d 8abd
00000240: 41bf 843c 32d4 843d 4384 9ebd 29b8 9cbd
00000250: f85d 9d3d 3b50 283d d21d 7c3d f3bb be3d
00000260: fc30 3b3d b419 fbbd 96c9 6dbd 523d 14bd
00000270: 5fdf babd f0a3 2b3d 155e 883c 281e 9d3d
00000280: 99c7 6fbd b942 163d 673f 3f3c e227 d33d
00000290: 5619 be3d 3289 acbc ad5c 5abd d511 89bd
000002a0: cd1d 6abd f92e efbd cc7f 183d 823c 5c3d
000002b0: 29f4 8abd 88d4 c73d b46b 2bbd 6337 b4bd
000002c0: 2f01 b13c fb9a 7d3d 4fc6 99bc 8f95 203c
000002d0: 4b95 053d 910c a7bd 8024 eb3d b0c6 a4bd
000002e0: 2856 54bd 7584 f1bd 1b47 243b d980 883c
000002f0: 3c48 b4bd 26c6 bebd b242 403b 021f 72bd
00000300: 6b72 ea3d 0793 c73d 01f4 dd3b a1ab 18bd
00000310: 8b42 6f3d 9aea ebbb 7211 fc3d 75e4 413d
00000320: 1d53 bf3d 2ef6 d23d 0ebb fcbc 564a b3bd
00000330: fdf9 e3ba 6c3a d0bd e26c 903d d6a2 48bd
00000340: 82ba 8d3d 3c55 5fbd e15e ab3d 9047 173c
00000350: 22e3 e33d 3c39 88bd 4db2 403d 9eab 9abd
00000360: 9766 90bc 2b25 d03d 92bf 8dbd beba b03d
00000370: 4109 ac3c d86b fa3a fd3b 9f3d 5b04 753a
00000380: d2b9 77bd 9449 bf3d 365f 643d d97e 7ebd
00000390: eddf bb3d eb24 31bd e680 5e3d 1971 acba
000003a0: 75fe e3bd 182a c73d fbcb bc3d bb9f e0bd
000003b0: c989 99bd c009 ee3d b590 ca3c 2511 a5bc
000003c0: bd7f acbc bef2 c53d 17a3 9c3d 0640 e4bd
000003d0: 9dcb 27bd 2968 08bd 9ece b6bd a8fd 273c
000003e0: 39d1 a33c 1a08 23bc 5737 99bd 8f94 51bb
000003f0: c4db 91bc a108 21bd e909 773d 751f b9bd
0.008032512 0.038602486 0.1170501 0.0076317233 -0.06298896 -0.012183603 0.018607099 0.09243979
0.032822665 -0.022588588 0.009476535 0.05311875 0.09298014 0.018782392 -0.0062519414 0.08638876
0.062475905 0.060770813 -0.007815622 0.088766485 -0.023365714 0.08219142 -0.059600923 -0.008752413
-0.046686642 0.032904528 0.031348396 0.002649061 -0.07698991 0.031830736 -0.050902784 0.011279318
0.07019009 -0.015481569 0.029039815 -0.1071253 -0.0203314 0.0854349 0.04595251 0.12050816
-0.022137353 0.05672869 -0.05446447 0.00046013974 -0.0517912 0.0007026426 0.023397563 -0.012335224
-0.066583276 -0.087092 0.033992928 -0.053027894 -0.10996292 0.09353127 -0.041643064 0.08950835
0.07584691 0.018514495 -0.10554802 -0.0057390467 0.043749504 0.048128348 -0.116745085 -0.003836885
-0.10640232 -0.05740181 -0.08579199 0.06423596 0.0803714 -0.055384897 -0.08719869 0.0609854
-0.03170178 -0.042777374 -0.0031263758 -0.08979479 -0.084938854 0.08301118 -0.08733525 0.0833797
-0.04214273 -0.07749573 -0.09881711 0.07586295 -0.11558068 0.030924613 0.006582689 0.060223155
-0.09054202 -0.10561358 0.023436017 -0.08200356 -0.043340426 0.03516803 0.04912521 0.08046811
-0.053075247 -0.06795769 0.09677383 0.019757137 -0.062263355 0.082192175 -0.095445625 0.04771879
0.009447424 -0.005860439 -0.06724887 -0.042264633 -0.027808385 -0.013745883 -0.045122236 0.011854862
-0.09392058 -0.08630456 0.018119609 0.094922 0.060141157 -0.08002384 0.057638496 -0.08206068
0.06287831 -0.0015730114 -0.01869915 -0.097114384 -0.09013086 -0.10801314 -0.047207102 0.09239886
0.027811112 0.091010615 -0.107905485 0.084933385 -0.024496386 0.079413675 -0.08426703 -0.06291835
0.09224112 0.08190747 -0.067823134 -0.085664384 -0.021659253 0.11447613 0.0994345 -0.067469925
0.016204478 0.064857855 -0.07740071 -0.07652313 0.07683939 0.04109214 0.061551876 0.09313192
0.045701012 -0.12260762 -0.058053575 -0.036191292 -0.09124636 0.04190439 0.016646424 0.076717675
-0.05853996 0.036684725 0.011672831 0.103103414 0.09282176 -0.021061514 -0.05331104 -0.06692854
-0.057157326 -0.11678881 0.03723125 0.053768642 -0.06784851 0.09757334 -0.04185076 -0.08799627
0.02160701 0.06191538 -0.018771319 0.009801283 0.03261308 -0.08156694 0.11481571 -0.08045709
-0.051839978 -0.11792842 0.0025066796 0.016663002 -0.0880284 -0.093151376 0.0029336629 -0.059111603
0.11447605 0.0974484 0.0067734723 -0.037273053 0.05841307 -0.0071995975 0.12308015 0.047337014
0.093420245 0.10300861 -0.030850913 -0.08754413 -0.0017393228 -0.10167393 0.07052018 -0.048983417
0.06920339 -0.054524645 0.08367706 0.00923337 0.111273065 -0.066515416 0.04704504 -0.07552265
-0.017627044 0.10163339 -0.06921305 0.08629368 0.021000506 0.0019105626 0.07775114 0.00093466573
-0.060479946 0.09340206 0.055754863 -0.06213269 0.0917357 -0.0432481 0.054322146 -0.0013156264
-0.11132518 0.097248256 0.09218594 -0.10967966 -0.074969836 0.116229534 0.024727205 -0.020149777
-0.021057004 0.0966544 0.076482944 -0.11145024 -0.040965665 -0.03330246 -0.08926128 0.010253347
0.019997226 -0.009950662 -0.07481258 -0.0031979417 -0.017804988 -0.03931487 0.060312185 -0.09039203

fc3.bias f4 [2]
00000000: 1ff4 bc3c 9cbf a0bc
0.023065625 -0.019622616
